…
 = F.max_pool2d(F.relu(self.conv1(x)), (2,2))\n","        x = F.max_pool2d(F.relu(self.conv2(x)), 2)\n","        x = x.view(-1, self.num_flat_features(x))\n","        x = F.relu(self.fc1(x))\n","        x = F.relu(self.fc2(x))\n","        x = self.fc3(x)\n","        return x\n","\n","    def num_flat_features(self, x):\n","        size = x.size()[1:]\n","        num_features = 1\n","        for s in size:\n","            num_features *= s\n","\n","        return num_features\n","\n","net = Net()\n","print(net)"],"execution_count":16,"outputs":[{"output_type":"stream","text":["Net(\n","  (conv1): Conv2d(1, 6, kernel_size=(3, 3), stride=(1, 1))\n","  (conv2): Conv2d(6, 16, kernel_size=(3, 3), stride=(1, 1))\n","  (fc1): Linear(in_features=400, out_features=120, bias=True)\n","  (fc2): Linear(in_features=120, out_features=84, bias=True)\n","  (fc3): Linear(in_features=84, out_features=10, bias=True)\n",")\n"],"name":"stdout"}]},{"cell_type":"markdown","metadata":{"id":"6CN4Kbd9FliP"},"source":["- `.parameters()` "]},{"cell_type":"code","metadata":{"id":"ZxxZoCC-Fn9b","executionInfo":{"status":"ok","timestamp":1603705990366,"user_tz":-540,"elapsed":961,"user":{"displayName":"박성흠","photoUrl":"https://lh3.googleusercontent.com/a-/AOh14Gi9Cj6D2h5-5RlAvS
…
xecution_count":23}]},{"cell_type":"code","metadata":{"id":"15cyBDq0DQV2","executionInfo":{"status":"ok","timestamp":1603706431894,"user_tz":-540,"elapsed":5309,"user":{"displayName":"박성흠","photoUrl":"https://lh3.googleusercontent.com/a-/AOh14Gi9Cj6D2h5-5RlAvSAB86oovrFwm59mGWcldbpX=s64","userId":"17794821546298080880"}},"outputId":"7a591bf5-dc44-4a6a-f8fe-55bb4580cf65","colab":{"base_uri":"https://localhost:8080/","height":140}},"source":["net.parameters"],"execution_count":24,"outputs":[{"output_type":"execute_result","data":{"text/plain":["<bound method Module.parameters of Net(\n","  (conv1): Conv2d(1, 6, kernel_size=(3, 3), stride=(1, 1))\n","  (conv2): Conv2d(6, 16, kernel_size=(3, 3), stride=(1, 1))\n","  (fc1): Linear(in_features=400, out_features=120, bias=True)\n","  (fc2): Linear(in_features=120, out_features=84, bias=True)\n","  (fc3): Linear(in_features=84, out_features=10, bias=True)\n",")>"]},"metadata":{"tags":[]},"execution_count":24}]},{"cell_type":"markdown","metadata":{"id":"5IecfHZiI09W"},"source":["## 모델 테스트"]},{"cell_type":"code","metadata":{"id":"QewXif2NDQYZ","executionInfo":{"status":"ok","timestamp":1603708763150,"user_tz":-540,"elapsed":2285,"user":{"displayName":"박성흠","photoUrl":"https://lh3.googleusercontent.com/a-/AO
…
x = F.max_pool2d(F.relu(self.conv1(x)), (2,2))\n","        x = F.max_pool2d(F.relu(self.conv2(x)), 2)\n","        x = x.view(-1, self.num_flat_features(x))\n","        x = F.relu(self.fc1(x))\n","        x = F.relu(self.fc2(x))\n","        x = self.fc3(x)\n","        return x\n","\n","    def num_flat_features(self, x):\n","        size = x.size()[1:]\n","        num_features = 1\n","        for s in size:\n","            num_features *= s\n","\n","        return num_features\n","\n","net = Net()\n","print(net)"],"execution_count":7,"outputs":[{"output_type":"stream","text":["Net(\n","  (conv1): Conv2d(1, 6, kernel_size=(3, 3), stride=(1, 1))\n","  (conv2): Conv2d(6, 16, kernel_size=(3, 3), stride=(1, 1))\n","  (fc1): Linear(in_features=400, out_features=120, bias=True)\n","  (fc2): Linear(in_features=120, out_features=84, bias=True)\n","  (fc3): Linear(in_features=84, out_features=10, bias=True)\n",")\n"],"name":"stdout"}]},{"cell_type":"code","metadata":{"id":"BndKyGxnSCXK","executionInfo":{"status":"ok","timestamp":1603709353141,"user_tz":-540,"elapsed":12469,"user":{"displayName":"박성흠","photoUrl":"https://lh3.googleusercontent.com/a-/AOh14Gi9Cj6D2h5-5RlAvSAB86oovrFwm59mGWcldbpX=s64","userId":"17794821546298080880"}}},"source":["net = Net().to
…
