…
fe3313a5-b0ee-4ad8-83a9-0f9f35ee32e1","colab":{"base_uri":"https://localhost:8080/","height":826}},"source":["model.summary()"],"execution_count":69,"outputs":[{"output_type":"stream","text":["Model: \"functional_3\"\n","_________________________________________________________________\n","Layer (type)                 Output Shape              Param #   \n","=================================================================\n","input (InputLayer)           [(None, 28, 28)]          0         \n","_________________________________________________________________\n","flatten (Flatten)            (None, 784)               0         \n","_________________________________________________________________\n","hidden1 (Dense)              (None, 256)               200960    \n","_________________________________________________________________\n","batch_normalization_4 (Batch (None, 256)               1024      \n","_________________________________________________________________\n","activation_4 (Activation)    (None, 256)               0         \n","_________________________________________________________________\n","dropout_4 (Dropout)          (None, 256)               0         \n","_________________________________________________________________\n","hidden2 (Dense)              (None, 100)               25700     \n","_________________________________________________________________\n","batch_normalization_5 (Batch (None, 100)               400       \n","_________________________________________________________________\n","activation_5 (Activation)    (None, 100)               0         \n","_________________________________________________________________\n","dropout_5 (Dropout)          (None, 100)               0         \n","_________________________________________________________________\n","hidden3 (Dense)              (None, 100)               10100     \n","_________________________________________________________________\n","batch_normalization_6 (Batch (None, 100)               400       \n","_________________________________________________________________\n","activation_6 (Activation)    (None, 100)               0         \n","_________________________________________________________________\n","dropout_6 (Dropout)          (None, 100)               0         \n","_________________________________________________________________\n","hidden4 (Dense)              (None, 50)                5050      \n","_________________________________________________________________\n","batch_normalization_7 (Batch (None, 50)                200       \n","_________________________________________________________________\n","activation_7 (Activation)    (None, 50)                0         \n","_________________________________________________________________\n","dropout_7 (Dropout)          (None, 50)                0         \n","_________________________________________________________________\n","output (Dense)               (None, 10)                510       \n","=================================================================\n","Total params: 244,344\n","Trainable params: 243,332\n","Non-trainable params: 1,012\n","_________________________________________________________________\n"],"name":"stdout"}]},{"cell_type":"markdown","metadata":{"id":"8noHcg8C6xMM"},"source":["### 모델 컴파일\n","- 평가(metrics)방식의 다른 방법\n","  - `tf.keras.metrics.Mean`\n",
…
