…
n","                  metrics = ['acc'])\n","    \n","    return model\n","\n","model_1 = build_model()\n","model_1.summary()"],"execution_count":11,"outputs":[{"output_type":"stream","text":["Model: \"functional_3\"\n","_________________________________________________________________\n","Layer (type)                 Output Shape              Param #   \n","=================================================================\n","input_2 (InputLayer)         [(None, 28, 28, 1)]       0         \n","_________________________________________________________________\n","conv2d_3 (Conv2D)            (None, 26, 26, 32)        320       \n","_________________________________________________________________\n","conv2d_4 (Conv2D)            (None, 24, 24, 64)        18496     \n","_________________________________________________________________\n","conv2d_5 (Conv2D)            (None, 22, 22, 64)        36928     \n","_________________________________________________________________\n","flatten_1 (Flatten)          (None, 30976)             0         \n","_________________________________________________________________\n","dense_3 (Dense)              (None, 128)               3965056   \n","_________________________________________________________________\n","dense_4 (Dense)              (None, 64)                8256      \n","_________________________________________________________________\n","dense_5 (Dense)              (None, 10)                650       \n","=================================================================\n","Total params: 4,029,706\n","Trainable params: 4,029,706\n","Non-trainable params: 0\n","_________________________________________________________________\n"],"name":"stdout"}]},{"cell_type":"markdown","metadata":{"id":"hg9FPpsQtsVZ"},"source":["### 모델 학습\n","- 런타임 GPU로 설정"]},{"cell_type":"code","metadata":{"id":"HnW5
…
n","    \n","    return model\n","\n","model_2 = build_model2()\n","model_2.summary()\n","## 음 dropout 을 쓰니가 파라미터 수가  줄ㅇㅅ네!\n"],"execution_count":17,"outputs":[{"output_type":"stream","text":["Model: \"functional_7\"\n","_________________________________________________________________\n","Layer (type)                 Output Shape              Param #   \n","=================================================================\n","input_4 (InputLayer)         [(None, 28, 28, 1)]       0         \n","_________________________________________________________________\n","conv2d_9 (Conv2D)            (None, 26, 26, 32)        320       \n","_________________________________________________________________\n","max_pooling2d (MaxPooling2D) (None, 13, 13, 32)        0         \n","_________________________________________________________________\n","conv2d_10 (Conv2D)           (None, 11, 11, 64)        18496     \n","_________________________________________________________________\n","max_pooling2d_1 (MaxPooling2 (None, 5, 5, 64)          0         \n","_________________________________________________________________\n","conv2d_11 (Conv2D)           (None, 3, 3, 64)          36928     \n","_________________________________________________________________\n","flatten_3 (Flatten)          (None, 576)               0         \n","_________________________________________________________________\n","dense_9 (Dense)              (None, 128)               73856     \n","_________________________________________________________________\n","dropout (Dropout)            (None, 128)               0         \n","_________________________________________________________________\n","dense_10 (Dense)             (None, 64)                8256      \n","_________________________________________________________________\n","dropout_1 (Dropout)          (None, 64)                0         \n","_________________________________________________________________\n","dense_11 (Dense)             (None, 10)                650       \n","=================================================================\n","Total params: 138,506\n","Trainable params: 138,506\n","Non-trainable params: 0\n","_________________________________________________________________\n"],"name":"stdout"}]},{"cell_type":"markdown","metadata":{"id":"bszItkm1xqwk"},"source":["### 모델 재학습"]},{"cell_type":"code","metadata":{"id":"HBT6wpMyyK7D","executionI
…
\n","    \n","    return model\n","\n","model_3 = build_model3()\n","model_3.summary()\n","\n","# 파라미터수를 많이 많이 늘렸어= 층을 많이 늘렸어"],"execution_count":22,"outputs":[{"output_type":"stream","text":["Model: \"functional_9\"\n","_________________________________________________________________\n","Layer (type)                 Output Shape              Param #   \n","=================================================================\n","input_5 (InputLayer)         [(None, 28, 28, 1)]       0         \n","_________________________________________________________________\n","conv2d_12 (Conv2D)           (None, 28, 28, 32)        320       \n","_________________________________________________________________\n","max_pooling2d_2 (MaxPooling2 (None, 14, 14, 32)        0         \n","_________________________________________________________________\n","conv2d_13 (Conv2D)           (None, 12, 12, 64)        18496     \n","_________________________________________________________________\n","max_pooling2d_3 (MaxPooling2 (None, 6, 6, 64)          0         \n","_________________________________________________________________\n","dropout_2 (Dropout)          (None, 6, 6, 64)          0         \n","_________________________________________________________________\n","conv2d_14 (Conv2D)           (None, 6, 6, 128)         73856     \n","_________________________________________________________________\n","conv2d_15 (Conv2D)           (None, 4, 4, 256)         295168    \n","_________________________________________________________________\n","max_pooling2d_4 (MaxPooling2 (None, 2, 2, 256)         0         \n","_________________________________________________________________\n","dropout_3 (Dropout)          (None, 2, 2, 256)         0         \n","_________________________________________________________________\n","flatten_4 (Flatten)          (None, 1024)              0         \n","_________________________________________________________________\n","dense_12 (Dense)             (None, 256)               262400    \n","_________________________________________________________________\n","dropout_4 (Dropout)          (None, 256)               0         \n","_________________________________________________________________\n","dense_13 (Dense)             (None, 100)               25700     \n","_________________________________________________________________\n","dropout_5 (Dropout)          (None, 100)               0         \n","_________________________________________________________________\n","dense_14 (Dense)             (None, 10)                1010      \n","=================================================================\n","Total params: 676,950\n","Trainable params: 676,950\n","Non-trainable params: 0\n","_________________________________________________________________\n"],"name":"stdout"}]},{"cell_type":"markdown","metadata":{"id":"sQPKIOk_1t8x"},"source":["## 모델 학습 및 결과 시각화"]},{"cell_type":"code","metadata":{"id":"AnaSooqoeWxk","exec
…
