…
365f47276","colab":{"base_uri":"https://localhost:8080/","height":545}},"source":["model =  model_build()\n","model.summary()"],"execution_count":13,"outputs":[{"output_type":"stream","text":["Model: \"functional_1\"\n","_________________________________________________________________\n","Layer (type)                 Output Shape              Param #   \n","=================================================================\n","input_2 (InputLayer)         [(None, 32, 32, 3)]       0         \n","_________________________________________________________________\n","conv2d_1 (Conv2D)            (None, 32, 32, 32)        896       \n","_________________________________________________________________\n","max_pooling2d (MaxPooling2D) (None, 16, 16, 32)        0         \n","_________________________________________________________________\n","conv2d_2 (Conv2D)            (None, 16, 16, 64)        18496     \n","_________________________________________________________________\n","max_pooling2d_1 (MaxPooling2 (None, 8, 8, 64)          0         \n","_________________________________________________________________\n","conv2d_3 (Conv2D)            (None, 8, 8, 128)         73856     \n","_________________________________________________________________\n","max_pooling2d_2 (MaxPooling2 (None, 4, 4, 128)         0         \n","_________________________________________________________________\n","flatten (Flatten)            (None, 2048)              0         \n","_________________________________________________________________\n","dense (Dense)                (None, 256)               524544    \n","_________________________________________________________________\n","dense_1 (Dense)              (None, 128)               32896     \n","_________________________________________________________________\n","dense_2 (Dense)              (None, 10)                1290      \n","=================================================================\n","Total params: 651,978\n","Trainable params: 651,978\n","Non-trainable params: 0\n","_________________________________________________________________\n"],"name":"stdout"}]},{"cell_type":"markdown","metadata":{"id":"dYJ4JOsKVpPc"},"source":["### 모델 학습 및 평가\n","- [런타임]에서 GPU 설정\n"]},{"cell_type":"code","metadata":{"id":
…
42141d0b3","colab":{"base_uri":"https://localhost:8080/","height":721}},"source":["model = model_build2()\n","model.summary()"],"execution_count":17,"outputs":[{"output_type":"stream","text":["Model: \"functional_3\"\n","_________________________________________________________________\n","Layer (type)                 Output Shape              Param #   \n","=================================================================\n","input_3 (InputLayer)         [(None, 32, 32, 3)]       0         \n","_________________________________________________________________\n","conv2d_4 (Conv2D)            (None, 32, 32, 32)        896       \n","_________________________________________________________________\n","batch_normalization (BatchNo (None, 32, 32, 32)        128       \n","_________________________________________________________________\n","max_pooling2d_3 (MaxPooling2 (None, 16, 16, 32)        0         \n","_________________________________________________________________\n","conv2d_5 (Conv2D)            (None, 16, 16, 64)        18496     \n","_________________________________________________________________\n","batch_normalization_1 (Batch (None, 16, 16, 64)        256       \n","_________________________________________________________________\n","max_pooling2d_4 (MaxPooling2 (None, 8, 8, 64)          0         \n","_________________________________________________________________\n","conv2d_6 (Conv2D)            (None, 8, 8, 128)         73856     \n","_________________________________________________________________\n","batch_normalization_2 (Batch (None, 8, 8, 128)         512       \n","_________________________________________________________________\n","max_pooling2d_5 (MaxPooling2 (None, 4, 4, 128)         0         \n","_________________________________________________________________\n","dropout (Dropout)            (None, 4, 4, 128)         0         \n","_________________________________________________________________\n","flatten_1 (Flatten)          (None, 2048)              0         \n","_________________________________________________________________\n","dense_3 (Dense)              (None, 256)               524544    \n","_________________________________________________________________\n","dropout_1 (Dropout)          (None, 256)               0         \n","_________________________________________________________________\n","dense_4 (Dense)              (None, 128)               32896     \n","_________________________________________________________________\n","dense_5 (Dense)              (None, 10)                1290      \n","=================================================================\n","Total params: 652,874\n","Trainable params: 652,426\n","Non-trainable params: 448\n","_________________________________________________________________\n"],"name":"stdout"}]},{"cell_type":"markdown","metadata":{"id":"bpQjxUXvZa0k"},"source":["### 모델 학습 및 평가\n","- [런타임]에서 GPU 설정\n"]},{"cell_type":"code","metadata":{"id
…
