…
16)\n","\n","# flatten한 다음거 ,layer쌓는건 우리가 정의하고\n","\n","model.add(Flatten())\n","model.add(Dense(256))\n","model.add(BatchNormalization())\n","model.add(Activation('relu'))\n","model.add(Dense(10, activation = 'softmax'))\n","\n","model.summary()\n","# 파라미터가 어마무시하네"],"execution_count":28,"outputs":[{"output_type":"stream","text":["Model: \"sequential_3\"\n","_________________________________________________________________\n","Layer (type)                 Output Shape              Param #   \n","=================================================================\n","vgg16 (Functional)           (None, 1, 1, 512)         14714688  \n","_________________________________________________________________\n","flatten_3 (Flatten)          (None, 512)               0         \n","_________________________________________________________________\n","dense_6 (Dense)              (None, 256)               131328    \n","_________________________________________________________________\n","batch_normalization_5 (Batch (None, 256)               1024      \n","_________________________________________________________________\n","activation_1 (Activation)    (None, 256)               0         \n","_________________________________________________________________\n","dense_7 (Dense)              (None, 10)                2570      \n","=================================================================\n","Total params: 14,849,610\n","Trainable params: 14,849,098\n","Non-trainable params: 512\n","_________________________________________________________________\n"],"name":"stdout"}]},{"cell_type":"code","metadata":{"id":"aflseCaRRTc4","executionInfo":{"status":"ok","timestamp":1603367549182,"user_tz":-540,"elapsed":7396
…
,"model.add(Dense(512, activation = 'relu'))\n","model.add(Dense(1, activation = 'sigmoid'))\n","\n","model.compile(loss = 'binary_crossentropy',\n","              optimizer = Adam(learning_rate = 1e-4),\n","              metrics = ['acc'])\n","\n","model.summary()"],"execution_count":38,"outputs":[{"output_type":"stream","text":["Model: \"sequential_4\"\n","_________________________________________________________________\n","Layer (type)                 Output Shape              Param #   \n","=================================================================\n","conv2d_12 (Conv2D)           (None, 148, 148, 32)      896       \n","_________________________________________________________________\n","max_pooling2d_4 (MaxPooling2 (None, 74, 74, 32)        0         \n","_________________________________________________________________\n","conv2d_13 (Conv2D)           (None, 72, 72, 64)        18496     \n","_________________________________________________________________\n","max_pooling2d_5 (MaxPooling2 (None, 36, 36, 64)        0         \n","_________________________________________________________________\n","conv2d_14 (Conv2D)           (None, 34, 34, 128)       73856     \n","_________________________________________________________________\n","max_pooling2d_6 (MaxPooling2 (None, 17, 17, 128)       0         \n","_________________________________________________________________\n","conv2d_15 (Conv2D)           (None, 15, 15, 128)       147584    \n","_________________________________________________________________\n","max_pooling2d_7 (MaxPooling2 (None, 7, 7, 128)         0         \n","_________________________________________________________________\n","flatten_4 (Flatten)          (None, 6272)              0         \n","_________________________________________________________________\n","dropout_1 (Dropout)          (None, 6272)              0         \n","_________________________________________________________________\n","dense_8 (Dense)              (None, 512)               3211776   \n","_________________________________________________________________\n","dense_9 (Dense)              (None, 1)                 513       \n","=================================================================\n","Total params: 3,453,121\n","Trainable params: 3,453,121\n","Non-trainable params: 0\n","_________________________________________________________________\n"],"name":"stdout"}]},{"cell_type":"markdown","metadata":{"id":"kdkYMVYP0z4O"},"source":["#### 모델 학습 및 학습 과정 시각화\n","- 런타임유형 GPU 사용"]},{"cell_type":"code","metadat
…
