…
sercontent.com/a-/AOh14Gi9Cj6D2h5-5RlAvSAB86oovrFwm59mGWcldbpX=s64","userId":"17794821546298080880"}},"outputId":"c71cdecc-4459-4f31-b34a-52ee9bf3952d","colab":{"base_uri":"https://localhost:8080/","height":404}},"source":["model = build_model()\n","model.summary()"],"execution_count":68,"outputs":[{"output_type":"stream","text":["Model: \"sequential_9\"\n","_________________________________________________________________\n","Layer (type)                 Output Shape              Param #   \n","=================================================================\n","embedding_4 (Embedding)      (None, 500, 32)           320000    \n","_________________________________________________________________\n","conv1d_4 (Conv1D)            (None, 494, 32)           7200      \n","_________________________________________________________________\n","max_pooling1d_4 (MaxPooling1 (None, 70, 32)            0         \n","_________________________________________________________________\n","conv1d_5 (Conv1D)            (None, 66, 32)            5152      \n","_________________________________________________________________\n","max_pooling1d_5 (MaxPooling1 (None, 13, 32)            0         \n","_________________________________________________________________\n","global_max_pooling1d_2 (Glob (None, 32)                0         \n","_________________________________________________________________\n","dense_8 (Dense)              (None, 1)                 33        \n","=================================================================\n","Total params: 332,385\n","Trainable params: 332,385\n","Non-trainable params: 0\n","_________________________________________________________________\n"],"name":"stdout"}]},{"cell_type":"markdown","metadata":{"id":"0qUbPGdmpHpQ"},"source":["### 모델 학습"]},{"cell_type":"code","metadata":{"id":"xcCgjLHvonWB","executionI
…
